MNIST.pth (torch, 168007 bytes, 10 tensors)

conv1.weight f4 [6, 1, 5, 5]
0	0xbe273be5	-0.16331442
1	0xbd217655	-0.03941949
2	0x3df71b4d	0.12065754
3	0x3e18c2e9	0.14918102
4	0x3e1ad25a	0.15119305
5	0x3e7ed130	0.24884486
6	0x3eb4660d	0.3523411
7	0x3e2bca8e	0.16776487
8	0x3e6068c1	0.2191496
9	0xbd7ce023	-0.06173719
10	0x3db67448	0.08908898
11	0x3e00ee83	0.12590985
12	0x3e2e3e39	0.17015924
13	0x3e985e9a	0.29759675
14	0x3e58f67e	0.2118778
15	0xbedb8729	-0.42876557
16	0xbe426236	-0.18982777
17	0xbd8f967d	-0.07011125
18	0xbe67416a	-0.22583547
19	0x3e1d4935	0.15359958
20	0xbeb02d47	-0.34409544
21	0xbf330f99	-0.69945675
22	0xbf5dc57d	-0.8662947
23	0xbedb3f4f	-0.42821738
24	0xbe29d21b	-0.16584055
25	0x3e8f012c	0.27930582
26	0x3d9f85dc	0.077892035
27	0xbeac8281	-0.33693317
28	0x3da0f534	0.07859269
29	0x3c102b9d	0.008799461
30	0xbe91ee47	-0.28502104
31	0xbf26a5c5	-0.65096694
32	0xbe2c804f	-0.16845821
33	0x3d98669a	0.07441445
34	0x3e4ee1cd	0.20203324
35	0xbe8b4741	-0.272028
36	0xbee79afe	-0.45235437
37	0xbe5571ec	-0.20844239
38	0xbdd42ccc	-0.10360107
39	0x3ea47cc4	0.3212644
40	0xbe9943f2	-0.2993465
41	0xbd40418c	-0.04693751
42	0x3d5aafa6	0.053390168
43	0x3e7eb819	0.24874915
44	0x3e88c108	0.2670977
45	0xbdf5d247	-0.12002998
46	0xbd44b1f6	-0.04802128
47	0x3dc635d5	0.096782364
48	0x3dd9ebe7	0.10640698
49	0x3dee3dc3	0.11632874
50	0xbe0f3951	-0.13986708
51	0xbca2120d	-0.019783998
52	0xbd0fd2d0	-0.035113156
53	0xbf0823f8	-0.53179884
54	0xbec2ea22	-0.38069254
55	0xbc16ca6c	-0.009203535
56	0x3dee68f2	0.116411105
57	0x3e8f941d	0.2804269
58	0x3e9f34a6	0.31094855
59	0xbf10de7a	-0.5658947
60	0x3e96d079	0.29455927
61	0xbd022470	-0.03177303
62	0x3e9817fd	0.29705802
63	0x3f096763	0.5367338
64	0xbdd4e089	-0.10394389
65	0xbe7b2b27	-0.2452818
66	0xbf14d723	-0.5814077
67	0xbe818955	-0.2530009
68	0x3ea8bea0	0.32957935
69	0xbe52f73e	-0.20602128
70	0x3dfda2c3	0.1238456
71	0xbeaa7bf7	-0.33297703
72	0xbe96fad1	-0.29488233
73	0x3d168487	0.03674748
74	0x3d0c869c	0.03430806
75	0xbe0a5faa	-0.13513055
76	0xbe422ca8	-0.18962348
77	0x3cecbc54	0.028898396
78	0x3db7b22b	0.0896953
79	0xbee83fda	-0.45361215
80	0x3dd014b9	0.101602025
81	0x3e1a7987	0.15085422
82	0x3d9a4392	0.07532419
83	0xbf6884ca	-0.9082762
84	0xbed0c871	-0.40777925
85	0xbda534ae	-0.080666885
86	0x3e2755ca	0.1634132
87	0x3e2f5ffe	0.17126462
88	0xbd0ed085	-0.03486683
89	0x3f0c4d9b	0.54805917
90	0xbd583e50	-0.0527938
91	0xbe6c11d1	-0.23053671
92	0x3e10a1d7	0.14124237
93	0x3ee22787	0.44170782
94	0x3eaee5a1	0.34159568
95	0xbcc536fb	-0.024074068
96	0x3e7dfd27	0.24803601
97	0xbe1cbd65	-0.15306623
98	0xbde92520	-0.11384034
99	0xbe3919a7	-0.18076192
100	0xbe2a2c2c	-0.16618413
101	0x3dbf904a	0.09353693
102	0xbcb39671	-0.021922322
103	0xbde4e75b	-0.1117694
104	0x3b21835d	0.002464495
105	0xbd60e14e	-0.054902367
106	0x3e637884	0.22213942
107	0xbe313b40	-0.17307758
108	0xbe19bd78	-0.15013683
109	0xbe8c480d	-0.2739872
110	0xbdaf924a	-0.08572824
111	0x3ebc2baa	0.36752063
112	0x3e2fe1d9	0.17175998
113	0xbe8735f7	-0.2640836
114	0xbedc903d	-0.43078795
115	0xbe6159fa	-0.2200698
116	0x3e037c8f	0.12840484
117	0x3e3ab487	0.18232928
118	0xbd8ec0d6	-0.06970374
119	0xbdee97d0	-0.1165005
120	0x3e4b47e1	0.19851638
121	0x3d7d486b	0.06183664
122	0x3e8ad5a6	0.27116126
123	0x3e0de42e	0.13856575
124	0x3e364565	0.1779991
125	0x3d9f089d	0.07765315
126	0x3d89775a	0.06712218
127	0x3dacb5c6	0.08433108
128	0x3dcc1dbe	0.0996661
129	0x3da1887e	0.07887362
130	0xbec48485	-0.38382354
131	0xbd71c24e	-0.059023194
132	0x3e4866d6	0.19570479
133	0xbd80363a	-0.06260343
134	0x3cf09f0c	0.029372714
135	0xbe29cf06	-0.1658288
136	0x3f071b37	0.527759
137	0x3dec78c4	0.11546472
138	0x3e059c17	0.13047825
139	0xbef030b2	-0.46912152
140	0x3e144023	0.14477591
141	0x3efeab01	0.4973984
142	0xbe350ea1	-0.17681362
143	0x3d2eae8b	0.042646926
144	0xbf14c5b4	-0.5811417
145	0xbd445f24	-0.047942296
146	0xbe175062	-0.14776757
147	0xbea06671	-0.31328157
148	0xbd47ed12	-0.048810072
149	0xbce0abe2	-0.02742571

conv1.bias f4 [6]
0	0xbb10f19b	-0.0022116664
1	0xbe8b1229	-0.27162293
2	0xbdeb8da3	-0.115016244
3	0xbe83106d	-0.2559847
4	0xbdc27659	-0.09495229
5	0xbe7e31e2	-0.24823716

conv2.weight f4 [16, 6, 5, 5]
0	0xbd38ecdc	-0.04514776
1	0xbf28daa4	-0.6595862
2	0xbe8eacb7	-0.27866146
3	0xbe95a26d	-0.29225484
4	0xbe99f076	-0.3006627
5	0x3e16434f	0.14674114
6	0xbd615b43	-0.055018675
7	0xbe62d8f3	-0.22153072
8	0xbef5ec49	-0.48031834
9	0x3e034dc5	0.12822635
10	0x3e912204	0.28346264
11	0x3ef87891	0.48529485
12	0x3f3011a8	0.6877694
13	0x3efee6fb	0.497856
14	0x3e0c9f8b	0.13732736
15	0xbf0c4246	-0.54788625
16	0xbe69881f	-0.22805832
17	0xbed14d8e	-0.40879482
18	0xbef82bab	-0.48470816
19	0xbf81e1a3	-1.0146984
20	0xbf6f477f	-0.9346847
21	0xbf013ef7	-0.504867
22	0xbf022c57	-0.5084891
23	0xbdb3095e	-0.08742021
24	0x3e6b1737	0.22958075
25	0x3dd520e3	0.10406663
26	0x3e74b704	0.2389794
27	0xbe467538	-0.19380653
28	0xbf060d68	-0.52364206
29	0xbf06830d	-0.5254372
30	0x3e5f004a	0.21777454
31	0x3e77eb67	0.24210893
32	0xbe9cd619	-0.30632094
33	0x3e166b03	0.14689259
34	0xbd4e635d	-0.05038773
35	0xbec1e911	-0.37873128
36	0xbc818e90	-0.01581505
37	0xbe9ec4ad	-0.31009427
38	0xbf12dfd9	-0.57372814
39	0xbe9cbe64	-0.30614007
40	0xbf042f34	-0.51634526
41	0xbea6ec8e	-0.32602352
42	0x3dfb1fff	0.12261962
43	0xbe6488c4	-0.22317797
44	0x3e5c0108	0.21484768
45	0xbe505691	-0.20345522
46	0xbe6cd041	-0.23126318
47	0x3e78e38c	0.24305552
48	0x3ed43533	0.41446838
49	0x3d7781bf	0.06042647
50	0xbf1ed976	-0.6205057
51	0xbe42e75d	-0.1903357
52	0x3efc9569	0.4933274
53	0x3f127ed7	0.5722479
54	0xbee69edf	-0.45043084
55	0x3ed39fbc	0.41332805
56	0x3e4574c1	0.1928282
57	0xbd9ec083	-0.077515624
58	0xbca3d07b	-0.019996872
59	0xbdbe2f30	-0.09286344
60	0x3ed68f89	0.41906384
61	0x3f19c806	0.60070837
62	0x3f088f7a	0.5334393
63	0x3e51e0a6	0.20495853
64	0xbd9721d1	-0.07379497
65	0xbe97db25	-0.29659382
66	0xbf7c31aa	-0.9851328
67	0xbf36fff2	-0.7148429
68	0xbf8ecc7c	-1.1156154
69	0xbfb936d7	-1.4469861
70	0xbe8f42a0	-0.27980518
71	0xbf128ff0	-0.5725088
72	0xbe2e146c	-0.16999978
73	0x3e349c4c	0.17637748
74	0x3f117766	0.5682281
75	0xbf156b25	-0.58366615
76	0xbf059385	-0.5217822
77	0xbeb57842	-0.35443312
78	0xbe0abe73	-0.13549213
79	0x3bc31ad5	0.0059541264
80	0x3e9504b7	0.2910516
81	0x3dcdf299	0.100560375
82	0x3e8d0d09	0.27549008
83	0x3dd5aa50	0.10432875
84	0x3e9eea87	0.31038305
85	0xbf15692e	-0.58363616
86	0xbed4b2aa	-0.4154256
87	0x3e9f6344	0.3113042
88	0xbeb7e696	-0.3591811
89	0xbf45214e	-0.77003944
90	0xbf1463c8	-0.57964754
91	0xbf1f4513	-0.62214774
92	0x3d1e4598	0.03864059
93	0x3e18793d	0.14889999
94	0x3e2a6a22	0.16642049
95	0xbe043c2d	-0.1291358
96	0xbdfbde1d	-0.12298224
97	0x3de872ab	0.11349996
98	0x3ea091b8	0.31361175
99	0x3df177fa	0.11790462
100	0x3d65b0d0	0.056076825
101	0xbdea40ca	-0.11438139
102	0x3ecc8c9b	0.39951023
103	0x3ebb6840	0.36602974
104	0x3edae748	0.4275458
105	0xbd9229ee	-0.07136904
106	0x3e1bd39b	0.1521744
107	0x3e3f722a	0.18695894
108	0xbdac8b9e	-0.08425067
109	0xbb8ceba2	-0.0043005506
110	0xbf89b7f1	-1.075926
111	0xbee8292c	-0.45343912
112	0xbdc17c38	-0.09447521
113	0xbf0beeb6	-0.5466112
114	0xbf37ef1e	-0.7184924
115	0x3e774cc5	0.24150379
116	0x3e990226	0.29884452
117	0xbe9dc1fb	-0.30812058
118	0xbca84bd1	-0.020543965
119	0xbef10bf6	-0.47079438
120	0xbf363bce	-0.71185005
121	0xbeb585a3	-0.3545352
122	0xbefdacda	-0.49545938
123	0x3e2feddb	0.17180578
124	0x3dbf7cfa	0.09350009
125	0xbfaf7b18	-1.370944
126	0x3ccb9412	0.024850879
127	0xbe39acfe	-0.18132398
128	0xbf76b5c5	-0.9637111
129	0x3d444667	0.047918703
130	0xbec37553	-0.3817545
131	0xbd6dec22	-0.058086522
132	0x3e0e3db4	0.13890725
133	0x3ee47555	0.44620767
134	0x3ecae2da	0.396262
135	0x3dae3990	0.08507073
136	0xbe06e88e	-0.1317465
137	0x3e56b7b6	0.20968518
138	0x3ee82502	0.45340735
139	0x3d996ec7	0.07491832
140	0xbdf4e17d	-0.11957071
141	0xbe2b97f3	-0.16757183
142	0x3d5b3538	0.05351755
143	0xbee7b1c9	-0.45252827
144	0xbe32698d	-0.17423077
145	0xbe9c0dca	-0.3047927
146	0xbd8a153d	-0.06742332
147	0xbe96a962	-0.29426104
148	0x3d954791	0.07289041
149	0xbf22ea16	-0.63638437
150	0x3bf8e557	0.007595699
151	0xbe7bf07c	-0.24603456
152	0xbe072e6c	-0.13201302
153	0x3f151f3d	0.5825079
154	0x3ed2767f	0.4110603
155	0x3e681f12	0.22668102
156	0x3e24c91d	0.16092344
157	0xbf2fa364	-0.6860869
158	0xbf1defe6	-0.6169418
159	0xbea82dcc	-0.3284744
160	0xbd6cfeaa	-0.057860054
161	0x3e09245f	0.1339278
162	0x3e32cdd9	0.17461337
163	0xbeb5ba0c	-0.35493505
164	0xbd4884f8	-0.048954934
165	0xbe2ec879	-0.17068662
166	0xbd0f9936	-0.035058223
167	0x3e0f7c62	0.14012292
168	0xbed1bbd3	-0.4096361
169	0xbe81746f	-0.25284144
170	0xbe19357e	-0.14961812
171	0xbdb50a7f	-0.088398926
172	0x3dc29a35	0.09502069
173	0x3dcb5e63	0.09930112
174	0xbee4191f	-0.44550416
175	0x3c3c5063	0.011493775
176	0x3e3c6ffc	0.18402094
177	0xbe09bb42	-0.1345034
178	0xbf38c7e3	-0.7218
179	0xbdf22692	-0.11823763
180	0x3d53b398	0.051684946
181	0xbce57a26	-0.028012346
182	0xbde0cd8a	-0.109767035
183	0xbe84bc57	-0.25924942
184	0xba13ca12	-0.0005637716
185	0x3ddf2343	0.108953975
186	0x3de5f185	0.11227707
187	0xbd9a7454	-0.07541719
188	0xbeb3b88c	-0.35101736
189	0xbf1cdefd	-0.61277753
190	0x3e363064	0.17791897
191	0xbe32270a	-0.17397705
192	0x3e8021c2	0.25025755
193	0xbf188cf6	-0.5959009
194	0xbf1bd5b9	-0.6087299
195	0x3ee3914c	0.4444679
196	0x3e364789	0.17800726
197	0x3f070cb2	0.52753747
198	0x3dc70716	0.097181484
199	0x3e40c3ab	0.18824641
200	0x3d9852b6	0.07437651
201	0xbec7cd26	-0.39023703
202	0xbf730316	-0.94926584
203	0x3ee23a00	0.44184875
204	0xbe49ec7b	-0.19719116
205	0xbe021a65	-0.12705381
206	0x3eb155d4	0.34635794
207	0x3eebb2f2	0.46034962
208	0xbec1ac41	-0.37826732
209	0x3e70a798	0.23501432
210	0xbe9dba3f	-0.30806157
211	0xbe654b76	-0.22392067
212	0x3f58587c	0.84510016
213	0x3e45920c	0.19293994
214	0xbe002bdf	-0.12516735
215	0x3e31b4bd	0.17354102
216	0xbe99f2e7	-0.30068132
217	0xbd335b74	-0.04378839
218	0xbe2a67e9	-0.16641201
219	0xbdda4e8a	-0.106595114
220	0xbe3f35b6	-0.18672833
221	0xbed2d33d	-0.41176787
222	0xbf1ef691	-0.6209498
223	0xbd0d3fb9	-0.0344846
224	0x3e205954	0.15659076
225	0x3d185c2e	0.037197284
226	0x3ec3cd0c	0.38242376
227	0xbe0f4e08	-0.1399461
228	0xbec002b0	-0.3750205
229	0xbdf2e88a	-0.118607596
230	0x3e914839	0.28375414
231	0xbd570734	-0.052497104
232	0x3f2704b4	0.6524155
233	0x3ecd5d88	0.4011042
234	0xbe27f0c0	-0.16400433
235	0xbf2cd871	-0.67517763
236	0xba2ad621	-0.0006516893
237	0x3ee4bf51	0.44677213
238	0x3ea19e1d	0.31565943
239	0xbe2a2d53	-0.16618852
240	0x3ee15385	0.44009033
241	0xbeb41824	-0.35174668
242	0xbf556cb9	-0.8336902
243	0x3e216078	0.15759456
244	0x3e129a3d	0.1431665
245	0x3e8771c5	0.26453987
246	0x3f1fe8a6	0.6246437
247	0x3e20d6f4	0.15706998
248	0xbf09ae60	-0.537817
249	0xbed42605	-0.41435257
250	0xbd8423e3	-0.06452157
251	0x3e0239e9	0.12717403
252	0xbec50bda	-0.38485605
253	0xbf7cc8ae	-0.9874371
254	0xbd479e68	-0.048735052
255	0xbeedabda	-0.46420175

conv2.bias f4 [16]
0	0xbd5f946f	-0.054584917
1	0xbe47f5b8	-0.19527328
2	0xbdd9e262	-0.10638882
3	0xbf1221dc	-0.57082915
4	0xbddd8314	-0.10816017
5	0xbebbd4a6	-0.36685675
6	0xbe066867	-0.13125764
7	0xbf1a2a10	-0.6022043
8	0xbed201d9	-0.41017035
9	0xbe01e262	-0.12684014
10	0x3c8c4803	0.017124182
11	0xbe22bde5	-0.15892752
12	0xbe95b144	-0.29236805
13	0x3c7c531f	0.015400677
14	0xbe821c03	-0.25411996
15	0xbf07bc50	-0.5302172

fc1.weight f4 [120, 256]
0	0xbd35d8d6	-0.044396244
1	0x3da0f795	0.078597225
2	0x3d84273f	0.06452798
3	0xbccbf136	-0.024895292
4	0x3e306777	0.17226969
5	0xbcd5de02	-0.026106838
6	0xbe103ad1	-0.14084937
7	0x3e29eff4	0.16595441
8	0xbde5115c	-0.11184952
9	0xbe0fc351	-0.14039351
10	0xbe611166	-0.21979293
11	0x3cad9abe	0.02119195
12	0x3e33f288	0.17572987
13	0xbe28267e	-0.16420934
14	0xbda0509e	-0.078278765
15	0x3dfc1f7e	0.12310694
16	0x3e015e0a	0.1263353
17	0x3c2f3ea6	0.010696089
18	0xbeb06532	-0.34452206
19	0xbe0f102f	-0.13971017
20	0x3e76fd86	0.24120149
21	0x3d4a2933	0.049355697
22	0xbeb4b6ca	-0.35295707
23	0xbe2f8e95	-0.17144234
24	0xbcea0f61	-0.028571786
25	0x3dc1d8a5	0.0946515
26	0xbdb9fd71	-0.09081543
27	0xbea458f8	-0.32099128
28	0x3d11a641	0.035558943
29	0x3ea99330	0.33120108
30	0xbda3f6fd	-0.08006094
31	0xbce7d5cb	-0.028300187
32	0x3e995e68	0.2995484
33	0xbe12b816	-0.14328036
34	0x3e5127ae	0.20425293
35	0xbb930835	-0.0044870623
36	0x3ebe0cae	0.3711905
37	0xbda4a352	-0.080389634
38	0xbe226847	-0.15860091
39	0xbe2ab79c	-0.16671604
40	0xbcc054e4	-0.023477979
41	0xbefbe9e4	-0.49201882
42	0xbe7a7d06	-0.24461755
43	0x3def2cf2	0.116784945
44	0xbe937d15	-0.28806368
45	0xbf007077	-0.5017161
46	0xbdc30bf0	-0.09523761
47	0x3da3d5e5	0.079997815
48	0xbd88b51e	-0.0667517
49	0x3e4dade1	0.20085861
50	0xbe684804	-0.22683722
51	0xbd98fa95	-0.0746967
52	0x3e35be08	0.17748272
53	0x3c7cf247	0.015438623
54	0x3e880029	0.26562622
55	0xbe9e12b7	-0.30873653
56	0xbde0bdd3	-0.10973706
57	0xbe11643b	-0.14198391
58	0x3d45f237	0.048326697
59	0xbdd16225	-0.10223798
60	0xbc8206b9	-0.015872346
61	0x3d6d4a55	0.057932217
62	0xbdf79910	-0.12089741
63	0xbe704d94	-0.23467094
64	0x3d4becf3	0.04978652
65	0x3e266d74	0.1625269
66	0xbebb9357	-0.3663585
67	0xbdc81070	-0.0976876
68	0x3e5848e8	0.21121562
69	0x3e82f05e	0.2557401
70	0xbd49be74	-0.049253896
71	0xbe449423	-0.19197135
72	0x3ead91de	0.3390035
73	0x3dff7016	0.124725506
74	0x3e94de15	0.29075685
75	0x3e9098e6	0.28241652
76	0xbd874719	-0.06605358
77	0x3e4b18c2	0.19833663
78	0xbd16a748	-0.036780626
79	0x3dcd3e41	0.100216396
80	0xbdadeb4b	-0.08492144
81	0x3d828b20	0.06374192
82	0x3e434d27	0.190724
83	0x3dfff578	0.12497991
84	0xbe35b6f0	-0.17745566
85	0x3e01a66c	0.12661141
86	0xbccfefbd	-0.02538287
87	0x3d49d1cf	0.049272355
88	0xbe4881f5	-0.19580825
89	0xbeb48b73	-0.3526264
90	0xbe2ecc51	-0.17070128
91	0xbe4b1b67	-0.19834672
92	0xbd3e61ba	-0.046479918
93	0xbdca317b	-0.09872719
94	0x3e0dbc88	0.1384145
95	0x3effe28f	0.49977538
96	0x3e8d0829	0.27545288
97	0xbeeb8c0f	-0.46005294
98	0x3eaad12f	0.3336272
99	0xbe2e56b5	-0.17025264
100	0xbd5d7bd5	-0.054073174
101	0xbdb0b947	-0.08629089
102	0xbd32ac88	-0.04362157
103	0x3e7923cf	0.24330066
104	0x3e150f12	0.1455653
105	0x3e996d79	0.29966334
106	0x3e1f56e6	0.15560493
107	0x3cf37ac8	0.029721633
108	0xbcf1600c	-0.029464744
109	0x3db85ab0	0.09001672
110	0xbd8b3930	-0.06798017
111	0xbe650b13	-0.22367506
112	0x3cc6fc4b	0.024290225
113	0x3e337e0d	0.17528553
114	0xbce0c51c	-0.02743774
115	0x3e7c8894	0.24661475
116	0x3e0594b2	0.13045004
117	0x3e172745	0.14761074
118	0x3db3d4e7	0.08780842
119	0x3e12e1ad	0.14343901
120	0x3dab4e96	0.083645985
121	0x3e64894d	0.22318001
122	0xbe6bd2ed	-0.2302968
123	0x3d36cb40	0.044627428
124	0x3c52306e	0.012828929
125	0x3d8b8c7b	0.06813904
126	0xbd1ba120	-0.037995458
127	0x3ddb1a41	0.10698367
128	0xbdc5e52c	-0.09662852
129	0xbec09bad	-0.3761877
130	0xbe70e3cb	-0.23524396
131	0xbefc8b32	-0.49324948
132	0x3eb563fe	0.3542785
133	0xbe15692d	-0.14590903
134	0xbcd442b0	-0.025910705
135	0xbef54e61	-0.4791136
136	0xbc13d018	-0.009021781
137	0x3edf23a1	0.4358187
138	0xbd755d79	-0.059903596
139	0x3dd58b19	0.104269214
140	0x3f0a1938	0.5394473
141	0x3eaed686	0.34148043
142	0xbe005d3b	-0.12535565
143	0x3e211aca	0.15732875
144	0x3da8347c	0.082131356
145	0x3e902369	0.28152016
146	0xbe021009	-0.1270143
147	0x3d5af0fb	0.053452473
148	0xbca5cdab	-0.020239672
149	0x3d245c36	0.040127
150	0xbdea94d2	-0.114541665
151	0x3d6455c7	0.055745866
152	0x3dd00342	0.101568714
153	0x3e4524ea	0.19252363
154	0xbd1cf158	-0.0383161
155	0x3e487b0c	0.19578189
156	0x3ec51e9f	0.38499925
157	0x3e20a67b	0.15688507
158	0x3dde57c1	0.108565815
159	0x3e2b71ec	0.16742676
160	0xbd8087b5	-0.06275884
161	0x3e4e16b8	0.20125854
162	0x3ea559ec	0.32295167
163	0x3e681a59	0.22666301
164	0xbea89e42	-0.3293324
165	0x3caf673d	0.021411533
166	0xbe2eb710	-0.1706202
167	0x3e5907ab	0.21194331
168	0xbf0c7d92	-0.54879105
169	0x3e3e7528	0.18599379
170	0x3db66442	0.089058414
171	0x3c8e1193	0.017342364
172	0xbe907b89	-0.2821925
173	0xbd83723e	-0.06418274
174	0x3e5cb0d7	0.21551834
175	0xbd8d5a28	-0.069019616
176	0x3d5b41eb	0.05352966
177	0x3e108457	0.14112984
178	0x3f0d9943	0.55311984
179	0x3e591f28	0.21203291
180	0x3eae420c	0.34034765
181	0x3e7399bc	0.23789114
182	0xbcf7f88b	-0.030269882
183	0xbe4cbc5f	-0.19993733
184	0xbddc9e7c	-0.10772416
185	0x3e3d80e7	0.18506204
186	0xbd8e0317	-0.06934183
187	0xbd4ed23a	-0.050493456
188	0xbe809c94	-0.2511946
189	0x3dc82f16	0.09774606
190	0x3ec40789	0.38287
191	0x3c801796	0.015636247
192	0x3d542b5c	0.051799163
193	0x3d9b00bc	0.075684994
194	0x3ec3efd0	0.382689
195	0xbcf5d38c	-0.0300081
196	0x3d47ed6b	0.048810404
197	0xbe129cae	-0.14317581
198	0x3eda2b62	0.42611223
199	0x3e1203fa	0.1425933
200	0xbe8fe199	-0.28101805
201	0x3d3545cf	0.044256028
202	0x3e46809d	0.19385
203	0xbd232ceb	-0.03983776
204	0xbe4f541a	-0.20246926
205	0xbe5320cd	-0.20617981
206	0xbe71c560	-0.23610449
207	0x3e3d3caa	0.18480173
208	0x3dd0a75a	0.1018817
209	0xbd9ee5b0	-0.07758653
210	0x3d13e82a	0.03611008
211	0xbec925db	-0.39286694
212	0xbebb63fc	-0.3659972
213	0xbed492de	-0.415183
214	0x3e19fad5	0.15037091
215	0x3c7b7bb1	0.015349315
216	0x3e8aaf00	0.2708664
217	0xbe055a6b	-0.13022773
218	0x3dfc379f	0.123152964
219	0x3d34f413	0.04417808
220	0x3e119ecd	0.14220734
221	0xbe13c22c	-0.1442954
222	0xbe5e12fb	-0.21686928
223	0xbe81a324	-0.2531978
224	0xbe0392d0	-0.12848973
225	0xbe0f3cf9	-0.13988103
226	0xbdb51bbd	-0.08843181
227	0x3dcf681d	0.1012728
228	0xbd3f82e8	-0.0467557
229	0xbe85c6bf	-0.26128194
230	0x3da40c42	0.080101505
231	0xbe953923	-0.29145154
232	0x3e6c4a90	0.23075318
233	0x3e09ff0c	0.13476199
234	0xbe9d5274	-0.3072697
235	0xbe861a93	-0.2619215
236	0xbc3a440e	-0.011368765
237	0x3d09d09a	0.033646204
238	0x3e70b713	0.23507337
239	0x3d05e892	0.0326925
240	0xbe8e0fdd	-0.27746478
241	0x3c6a2f30	0.014293477
242	0xbe91d9c5	-0.28486457
243	0x3e11c19b	0.14234011
244	0x3e79417d	0.24341388
245	0x3ee12b4c	0.43978345
246	0xbee15db0	-0.4401679
247	0xbe95d69e	-0.29265302
248	0x3d5d1011	0.0539704
249	0xbd4d6bcf	-0.050151642
250	0xbd767ab6	-0.06017562
251	0xbe228f23	-0.15874915
252	0x3d780cdb	0.060559135
253	0xbe83c8bd	-0.2573909
254	0x3e00ae51	0.12566496
255	0xbe3f0957	-0.18655907

fc1.bias f4 [120]
0	0xbea9cd41	-0.3316441
1	0xbec12cc7	-0.37729475
2	0xbcf98c2b	-0.030462345
3	0xbef9c151	-0.487803
4	0xbe8aa04c	-0.27075422
5	0x3e86e372	0.26345402
6	0xbe579dca	-0.21056286
7	0xbf3212dd	-0.69560033
8	0xbd89e472	-0.067330256
9	0xbdbdbb57	-0.09264248
10	0x3c6af2f5	0.014340152
11	0xbe3c098e	-0.1836302
12	0x3ba0173a	0.0048855813
13	0xbf074fd1	-0.52856165
14	0xbd7732d0	-0.060351193
15	0xbee59a48	-0.4484427
16	0xbedc0f55	-0.42980447
17	0xbe1b6c15	-0.15177949
18	0xbae850eb	-0.0017724311
19	0xbe6504d3	-0.22365122
20	0xbe054f24	-0.13018471
21	0xbd92ea04	-0.07173541
22	0xbf014326	-0.50493085
23	0xbefc460f	-0.492722
24	0xbefba0f4	-0.49146235
25	0xbd3ddd88	-0.046353847
26	0xbe4f4b0a	-0.20243469
27	0xbe117b17	-0.14207111
28	0xbeb0657d	-0.3445243
29	0xbc0a6557	-0.008447013
30	0xbf01b999	-0.50673825
31	0xbeda8ece	-0.42687076
32	0xbe5707c5	-0.20999058
33	0x3de3092a	0.11085732
34	0xbed0ffca	-0.40820152
35	0xbe7a2575	-0.24428351
36	0xbc9c1bb6	-0.019056182
37	0xbe83e6ac	-0.25761926
38	0xbea67f18	-0.3251884
39	0xbcba099b	-0.022709658
40	0x3d58c3df	0.052921172
41	0xbe9e5503	-0.30924234
42	0xbf2305ab	-0.63680524
43	0xba26d0d8	-0.00063635176
44	0x3c52b6dd	0.012860981
45	0xbcacd54c	-0.021097802
46	0xbe36dc52	-0.17857483
47	0xbd7ec65b	-0.062200885
48	0xbbba2f7f	-0.0056819315
49	0xbe930521	-0.2871485
50	0xbe694c7e	-0.22783086
51	0xbcecb9f0	-0.028897256
52	0xbd3f1ad3	-0.04665644
53	0xbed94474	-0.42435038
54	0x3d8387b4	0.06422368
55	0x3c7fc2f7	0.015610448
56	0xbf46ac3e	-0.7760657
57	0xbee80560	-0.453166
58	0xbe874538	-0.26419997
59	0x3df68d30	0.12038648
60	0xbeeba327	-0.46022913
61	0xbd83065a	-0.06397696
62	0xbeb961a0	-0.36207294
63	0xbebe4368	-0.37160802
64	0xbe98bed2	-0.29833084
65	0xbe27ec70	-0.16398787
66	0x3db42321	0.08795763
67	0xbd7e89ae	-0.06214302
68	0xbe3df359	-0.18549861
69	0x3c178dbf	0.0092501035
70	0x3a8c88f0	0.0010721963
71	0xbedd1f3a	-0.43187886
72	0xbe1bf65b	-0.15230696
73	0xbde10fe1	-0.10989357
74	0xbdda9546	-0.10673003
75	0xbe2f583a	-0.171235
76	0xbee96e63	-0.4559203
77	0xbdb93f45	-0.09045271
78	0x3c1f0756	0.009706339
79	0x3caad83e	0.020855065
80	0xbeeefe94	-0.46678603
81	0xbeb95d0d	-0.36203805
82	0x3de521e9	0.111881085
83	0xbba00414	-0.0048832987
84	0xbe89125d	-0.26771823
85	0x3d1cc6b5	0.03827544
86	0xbe7f228b	-0.24915521
87	0xbe8738cb	-0.26410517
88	0xbeaed2f5	-0.34145322
89	0xbe1f7e6f	-0.15575574
90	0xbe11e0c7	-0.14245902
91	0x3d99612d	0.07489238
92	0xbd5497f8	-0.05190274
93	0xbe05f63b	-0.1308221
94	0x3dce672a	0.10078271
95	0xbe51cef2	-0.204891
96	0xbe5e0b11	-0.21683909
97	0xbeec75f0	-0.4618373
98	0xbbfa0860	-0.007630393
99	0x3e790130	0.24316859
100	0xbddfea63	-0.109333776
101	0x3e9a747b	0.30166993
102	0xbe00e8ff	-0.12588881
103	0xbea2b1af	-0.31776187
104	0xbe82fc1a	-0.25582963
105	0xbee863a3	-0.45388517
106	0xbd879de5	-0.06621913
107	0x3d529b5a	0.051417686
108	0x39c69aa4	0.0003788072
109	0xbda45820	-0.08024621
110	0xbc120028	-0.00891117
111	0xbd42c02e	-0.047546558
112	0xbe526c87	-0.20549212
113	0xbe939e42	-0.2883168
114	0xbf045a59	-0.5170036
115	0xbf69734a	-0.9119154
116	0x3e55da5b	0.20884077
117	0xbef885c3	-0.48539552
118	0xbe8d99e8	-0.27656484
119	0xbd30cc50	-0.043163598

fc2.weight f4 [60, 120]
0	0xbe24046c	-0.16017312
1	0xbe3052fd	-0.17219158
2	0x3e419dff	0.18907927
3	0xbd5967a2	-0.053077348
4	0xbe704f2d	-0.23467703
5	0xbe23b40a	-0.15986648
6	0xbeb1dada	-0.34737283
7	0x3d8a5ded	0.06756196
8	0x3e78accb	0.24284665
9	0xbaf453fd	-0.0018640753
10	0x3d68e3c7	0.05685785
11	0x3dfb5f54	0.12274042
12	0xbf1e9abe	-0.6195487
13	0x3c767755	0.015043099
14	0x3d0e7937	0.03478357
15	0x3e4d5e7c	0.20055574
16	0x3dd08b8f	0.10182869
17	0x3e4ff0ae	0.20306656
18	0xbd008039	-0.031372283
19	0x3ce48353	0.027894652
20	0x3e127e8d	0.14306088
21	0xbe2e8802	-0.1704407
22	0xbd3c052d	-0.045903374
23	0x3e9daced	0.30795994
24	0x3ebcfbeb	0.36910948
25	0x3d484880	0.048897266
26	0x3d5d3951	0.05400974
27	0xbe35cdb2	-0.17754248
28	0x3e391da2	0.1807771
29	0x3c7bd196	0.015369793
30	0x3e899732	0.26873165
31	0xbe896be1	-0.26840118
32	0x3e72a58b	0.23695962
33	0xbe9c774d	-0.3055977
34	0x3e07c0cd	0.13257141
35	0xbd587443	-0.05284525
36	0xbeaf6a70	-0.34260893
37	0x3c810c00	0.015752792
38	0x3e810524	0.25199234
39	0xbd011e03	-0.031522762
40	0x3d3f773e	0.046744578
41	0xbc8b717e	-0.01702189
42	0x3e93dcb2	0.28879315
43	0x3d065fec	0.032806322
44	0xbd85c2fa	-0.065313295
45	0x3981e79f	0.00024777369
46	0xbea9f21e	-0.33192533
47	0x3ca63cdc	0.020292692
48	0xbe1a108f	-0.15045379
49	0xbea12f77	-0.31481525
50	0x3e2f7ea9	0.17138161
51	0xbd8ad38f	-0.06778633
52	0xbcf6de02	-0.030135158
53	0x3ea9519a	0.3307007
54	0xbe1cd515	-0.1531566
55	0x3dbe2cca	0.092858866
56	0x3ca7182e	0.020397272
57	0xbf00fb30	-0.5038328
58	0x3ded6e89	0.115933485
59	0xbeae023e	-0.33986086
60	0xbebd4117	-0.36963722
61	0xbc386b41	-0.01125604
62	0xbf0da441	-0.55328757
63	0xbe38276b	-0.17983787
64	0x3ea5b751	0.32366422
65	0xbe338c71	-0.17534043
66	0xbeeb0a84	-0.4590646
67	0x3e4e6235	0.2015465
68	0x3edc1ed3	0.42992267
69	0xbd02a166	-0.031892203
70	0x3d1dd52a	0.038533367
71	0xbab749bf	-0.001398377
72	0xbf280f69	-0.65648514
73	0xbe82ad1e	-0.25522703
74	0xbdd1f1d0	-0.102512
75	0xbefc9ffd	-0.4934081
76	0x3e9321c8	0.2873671
77	0x3d2e13c6	0.042499326
78	0xbd9ebd12	-0.07750906
79	0x3dbbbe0e	0.091671094
80	0x3e59e38c	0.21278208
81	0xbefbb427	-0.49160883
82	0xbf3d4c3c	-0.7394445
83	0x3d527aa8	0.051386505
84	0xbe41beb1	-0.18920399
85	0xbebf4ade	-0.37361807
86	0xbe987e74	-0.29783976
87	0xbe8074ee	-0.2508921
88	0xbec8c07f	-0.39209363
89	0x3e78a0e8	0.24280131
90	0xbd9ee6eb	-0.07758888
91	0xbbe6380f	-0.0070257257
92	0xbe216012	-0.15759304
93	0x3d3b9dd0	0.0458048
94	0xbe33e0b8	-0.17566192
95	0xbd81acb7	-0.06331771
96	0x3e00a4a9	0.12562813
97	0x3eb46c64	0.35238945
98	0x3d6a1447	0.057148244
99	0xbe6cd844	-0.23129374
100	0x3e3b1924	0.18271309
101	0xbe34167d	-0.17586704
102	0xbd4f37bb	-0.050590258
103	0xbe98b5c6	-0.29826182
104	0x3e2e4220	0.17017412
105	0xbbfdc62c	-0.007744571
106	0xbcd45350	-0.025918633
107	0xbdb3263e	-0.087475285
108	0xbd848f5c	-0.06472656
109	0x3c262f95	0.01014318
110	0xbbf0e82e	-0.0073518967
111	0xbf212040	-0.62939835
112	0x3d6179ed	0.055047918
113	0x3eb5a4a5	0.35477176
114	0xbe71f97a	-0.23630324
115	0x3c0e0213	0.008667487
116	0x3dc44955	0.095842995
117	0x3d2faea3	0.042891156
118	0xbd5326de	-0.05155074
119	0xbe63c21b	-0.22242014
120	0xbd8bc5a3	-0.068248056
121	0xbd078499	-0.03308544
122	0xbd80a13b	-0.06280752
123	0xbd3ea2a2	-0.046541817
124	0xbd6c786b	-0.057732027
125	0xbdf9fc9f	-0.12206387
126	0xbde98e2e	-0.11404072
127	0x3dabe752	0.0839373
128	0x3be81b30	0.007083319
129	0xbc186398	-0.009301089
130	0xbdb32d51	-0.08748878
131	0xbcfbd05d	-0.030739004
132	0x3d0b7a6d	0.0340523
133	0xbcc1f198	-0.023674771
134	0x3cff4618	0.031161353
135	0xbcc7b222	-0.024376933
136	0xbd8bbe86	-0.06823449
137	0xbccc69d3	-0.024952805
138	0x3cbb3a38	0.02285491
139	0xbcbc16e8	-0.022960141
140	0xbd9a5ce9	-0.075372525
141	0x3ced4e98	0.02896814
142	0xbcc87b13	-0.024472749
143	0x3ca64a5c	0.02029913
144	0x3ce5cf90	0.028053075
145	0xbdb55e0f	-0.08855831
146	0xbd68a79b	-0.056800466
147	0x3cefbfea	0.029266316
148	0x3d51b72c	0.051200077
149	0x3dac6f5a	0.08419676
150	0xbda1a946	-0.078936145
151	0xbcc4fa0b	-0.024045011
152	0x3c62f8b7	0.013853244
153	0x3cb3cf69	0.021949487
154	0xbdcf21a4	-0.10113838
155	0xbd506b09	-0.050883327
156	0xbd8b570d	-0.06803713
157	0xbd04bf8d	-0.03240924
158	0x3d2ff223	0.04295553
159	0x3c0f6b08	0.008753546
160	0xbd8d2803	-0.06892397
161	0xbd101910	-0.03518015
162	0xbd7db3fc	-0.061939225
163	0x3d2510dc	0.04029928
164	0x3d86ae3e	0.06576203
165	0x3d801760	0.062544584
166	0x3b940df2	0.004518264
167	0xbbad070b	-0.0052803806
168	0xbcd6fb64	-0.02624292
169	0x3d21d460	0.039509177
170	0xbc332a45	-0.010935371
171	0xbd0ca055	-0.034332592
172	0xbca0a488	-0.019609705
173	0x3d430efc	0.047621712
174	0xbdfd447c	-0.12366578
175	0xbd93a026	-0.0720828
176	0xbd75867c	-0.059942707
177	0xbc94fcf1	-0.018187018
178	0xbd681d36	-0.056668483
179	0xbccc4c61	-0.024938764
180	0xbccf038a	-0.025270242
181	0xbd12410f	-0.035706576
182	0x3d69472e	0.056952648
183	0xbdcb7d4e	-0.09936009
184	0xbd381f79	-0.04495189
185	0x3d0837c3	0.033256304
186	0x3c83aeeb	0.016074618
187	0x3c29e9b5	0.0103706615
188	0xbe18cd76	-0.14922127
189	0x3d429548	0.047505647
190	0xbd0310be	-0.03199839
191	0xbcb9030a	-0.022584457
192	0xbbd12aa0	-0.006383255
193	0xbdd8a8c8	-0.105790675
194	0xbd2cc209	-0.042177234
195	0x3c6007e6	0.013673758
196	0xbdd618ef	-0.104539745
197	0xbdc8555a	-0.097819045
198	0xbdd41caa	-0.1035703
199	0xbcc5f925	-0.024166653
200	0xbd7e7ef1	-0.06213278
201	0xbd5e0915	-0.05420788
202	0xbd8f9920	-0.07011628
203	0x3c889458	0.016672298
204	0xbda0f5a7	-0.078593545
205	0xbd164775	-0.03668924
206	0xbe29e698	-0.16591871
207	0xbca933cc	-0.020654581
208	0xbcabd8f5	-0.020977477
209	0xbda8f880	-0.082505226
210	0xbdcbb161	-0.09945942
211	0xbb50b029	-0.003184328
212	0xbd733614	-0.059377745
213	0xbd9cded2	-0.07659687
214	0xbc1dbd3e	-0.009627638
215	0xbda44d3f	-0.08022546
216	0x3c334dee	0.010943873
217	0x3dbc66ee	0.0919932
218	0xbc073b20	-0.008253843
219	0xbdc73924	-0.097276956
220	0xbdac1640	-0.08402681
221	0xbd7ac523	-0.06122316
222	0xbe10e7d4	-0.14150935
223	0x3d282e4d	0.04105978
224	0xbe14e09c	-0.14538807
225	0x3a6e8569	0.0009098859
226	0xbd90d9df	-0.070728056
227	0x3a579c0b	0.00082248513
228	0x3ce10088	0.027466074
229	0x3d908dec	0.070583194
230	0xbd946bcc	-0.07247123
231	0x3c6a6619	0.014306569
232	0xb9d6f74e	-0.00041001517
233	0xbda4febf	-0.080564015
234	0x3d30394d	0.043023396
235	0xbd8e4025	-0.06945828
236	0x3c26d2d9	0.010182106
237	0xbcf2b66f	-0.029628007
238	0x3ca98788	0.02069451
239	0xbde4d4e3	-0.111734174
240	0xbdbf5271	-0.09341896
241	0xbea9009d	-0.3300828
242	0xbe6a662e	-0.22890541
243	0x3e27954f	0.1636555
244	0xbdf17331	-0.11789549
245	0xbd8ce186	-0.06878953
246	0x3ddc7cd6	0.10765998
247	0x3ea46d9a	0.3211487
248	0xbd950c14	-0.07277694
249	0x3cee5d79	0.029097306
250	0x3d5875fa	0.052846886
251	0x3e79891a	0.24368706
252	0xbec0faf4	-0.37691462
253	0xbeca5579	-0.39518335
254	0xbc95b150	-0.018273026
255	0x3e61b7e1	0.220428

fc2.bias f4 [60]
0	0xbf1f011f	-0.62111086
1	0xbe12629c	-0.14295429
2	0xbee3f0e4	-0.44519722
3	0x3d36c1d7	0.044618454
4	0xbe69c625	-0.22829492
5	0xbe76a2b0	-0.24085498
6	0x3d728c20	0.059215665
7	0xbe57b3ce	-0.21064684
8	0xbeaac429	-0.33352783
9	0xbe58939d	-0.2115006
10	0xbe9a677f	-0.30157086
11	0xbf22d973	-0.6361305
12	0x3e2c0b79	0.16801251
13	0xbe8bba9a	-0.27290803
14	0x3e1e1cd6	0.15440688
15	0xbed7f4cf	-0.42178962
16	0xbe17a019	-0.14807166
17	0xbf353410	-0.70782566
18	0x3e73fe83	0.23827557
19	0xbf51d35f	-0.8196315
20	0xbf17a5bb	-0.5923726
21	0xbe4ec860	-0.20193624
22	0xbf2858c5	-0.6576045
23	0xbefc30b2	-0.49255902
24	0xbe2694dd	-0.16267724
25	0xbeaff241	-0.34364513
26	0xbe9a227e	-0.3010444
27	0xbf236f3a	-0.63841593
28	0xbee04fde	-0.43810934
29	0xbf048fea	-0.51782095
30	0xbe94bf1a	-0.2905205
31	0xbecb5692	-0.39714485
32	0xbf644645	-0.8916972
33	0xbdeeb9ba	-0.11656518
34	0xbee61ff0	-0.4494624
35	0xbe5fbc57	-0.2184919
36	0xbf2d220a	-0.67630064
37	0xbf501035	-0.8127473
38	0xbea2e314	-0.31813872
39	0xbeb04b9d	-0.34432688
40	0xbe871972	-0.263866
41	0xbec30d96	-0.38096303
42	0xbe805943	-0.250681
43	0xbf140fa7	-0.57836384
44	0xbece7796	-0.40325612
45	0xbe736244	-0.23767954
46	0xbedc4ad8	-0.4302585
47	0xbd7273ea	-0.059192576
48	0xbed7d059	-0.42151144
49	0xbca37578	-0.019953474
50	0xbecda05a	-0.401614
51	0xbf0fd427	-0.56183094
52	0x3d7bba0e	0.061456732
53	0xbe6cbcec	-0.23118943
54	0xbf370805	-0.7149661
55	0xbf2ae23c	-0.66751456
56	0xbf2fa819	-0.6861587
57	0xbf285c72	-0.6576606
58	0xbe3fc675	-0.18728049
59	0xbec433d3	-0.3832079

fc3.weight f4 [10, 60]
0	0xbec6e367	-0.3884537
1	0xbddc2174	-0.10748568
2	0xbe06582b	-0.13119571
3	0xbf2db058	-0.67847204
4	0xbecc7ebb	-0.39940438
5	0xbf770116	-0.9648603
6	0xbf439f65	-0.7641509
7	0xbd8788ff	-0.06617927
8	0xbf90d87f	-1.1316069
9	0xbf0f81b2	-0.56057274
10	0xbf298f2d	-0.66234094
11	0xbe9fb57c	-0.3119315
12	0xbeb31589	-0.34977368
13	0xbf69098f	-0.9103021
14	0xbf165ec2	-0.5873834
15	0x3e37801b	0.17919962
16	0x3db44bc7	0.08803516
17	0xbf51344a	-0.8172041
18	0xbf09ba7c	-0.5380018
19	0x3d8b530a	0.06802948
20	0x3d299808	0.041404754
21	0xbf2fbb97	-0.68645614
22	0xbecd1146	-0.4005224
23	0xbf4a8bcd	-0.7911957
24	0xbeb140f7	-0.34619877
25	0xbf2a0ed0	-0.6642885
26	0xbf3ba52e	-0.7329892
27	0xbee7f425	-0.45303455
28	0x3e3109cf	0.17288898
29	0xbe94abc4	-0.29037297
30	0xbecd6a09	-0.4011996
31	0xbcdf2c74	-0.027242877
32	0xbf05f688	-0.523293
33	0xbf44f8d7	-0.769422
34	0xbde5d39c	-0.11222002
35	0x3dbb018e	0.09131156
36	0xbf14bf06	-0.5810398
37	0x3dfd3c5b	0.123650275
38	0x3d5ccd71	0.05390686
39	0xbf0e9c2a	-0.5570704
40	0x3e4b6d14	0.19865829
41	0xbf86f50e	-1.0543535
42	0xbe40c7b7	-0.18826185
43	0xbded14a9	-0.11576206
44	0xbef05273	-0.46937904
45	0xbf08f142	-0.5349313
46	0xbf322428	-0.6958642
47	0xbf6afe53	-0.9179432
48	0xbf36db9d	-0.71428853
49	0xbf8052b7	-1.0025243
50	0xbf5b1626	-0.8558067
51	0xbd872777	-0.06599324
52	0xbf32e77c	-0.6988447
53	0xbd236554	-0.039891556
54	0xbd824da8	-0.06362468
55	0xbf4f3718	-0.8094344
56	0xbe29fd8d	-0.16600628
57	0xbe9b9c09	-0.30392483
58	0x3caa7186	0.020806085
59	0xc01cbfc7	-2.4492052
60	0xbe0f3e18	-0.1398853
61	0xbe121ccb	-0.14268796
62	0xbe59ff03	-0.21288686
63	0xbe9d37ac	-0.30706537
64	0x3d76e6f7	0.06027886
65	0xbe6da0a8	-0.23205817
66	0xbc84583c	-0.016155355
67	0xbe412f0e	-0.18865606
68	0xbf441528	-0.7659478
69	0xbde6245d	-0.112374045
70	0x3d99108d	0.0747386
71	0x3cf5140e	0.02991679
72	0xbe22c604	-0.1589585
73	0xbe9d14f8	-0.3068006
74	0xbf5f172c	-0.8714473
75	0xbeb17653	-0.34660587
76	0xbeaa467b	-0.33256897
77	0xbf1ad989	-0.6048818
78	0xbe6bed43	-0.23039727
79	0xbf741138	-0.95338774
80	0xbda70503	-0.08155253
81	0xbe9c00ed	-0.30469456
82	0xbfbad32d	-1.4595696
83	0xbf18f841	-0.59753805
84	0x3bb115e7	0.0054042223
85	0xbedab1e4	-0.42713845
86	0xbd12ef08	-0.03587249
87	0xbf717587	-0.9431996
88	0xbe75519a	-0.2395691
89	0xbf14ed20	-0.58174324
90	0xbf1cc9e1	-0.6124554
91	0xbd83fdd3	-0.064448975
92	0xbe12f360	-0.14350653
93	0xbc4550a4	-0.012043152
94	0xbeeb49db	-0.45954785
95	0xbefe3542	-0.49650007
96	0x3d59b273	0.053148698
97	0xbeb10e86	-0.34581393
98	0x3d9aeb61	0.07564426
99	0xbd2ad2d9	-0.041704986
100	0xbe81833d	-0.2529544
101	0x3c9d0c9e	0.019171055
102	0x3d3954c4	0.045246854
103	0xbed5e184	-0.41773617
104	0xbdaf9794	-0.08573833
105	0xbf20c083	-0.6279375
106	0xbe8823c0	-0.26589775
107	0xbd3b6a4c	-0.04575567
108	0xbe4de6b1	-0.20107533
109	0xbec02991	-0.37531713
110	0xbc97a25e	-0.01851004
111	0xbf7871aa	-0.9704844
112	0xbf497969	-0.7870088
113	0xbe5af9d4	-0.21384364
114	0xbc409d41	-0.011756242
115	0xbd86e4ba	-0.06586595
116	0xbec149d2	-0.37751633
117	0xbf4efd6e	-0.80855453
118	0xbf8c78e5	-1.0974394
119	0xbf52cf16	-0.8234724
120	0x3cbbaa2c	0.022908293
121	0xbddc92e0	-0.10770202
122	0x3dbeb737	0.09312289
123	0xbd9741de	-0.0738561
124	0xbda19a84	-0.078908
125	0xbd89576a	-0.06706126
126	0xbf44860a	-0.7676703
127	0xbeca423c	-0.39503658
128	0xbf868abc	-1.0511088
129	0xbe4ada0d	-0.19809742
130	0x3d4e2658	0.050329536
131	0xbe019476	-0.1265429
132	0xbe93a756	-0.28838605
133	0xbeb8b3fd	-0.3607482
134	0xbf12d889	-0.57361656
135	0x3e00b956	0.125707
136	0xbf60e98f	-0.8785638
137	0xbf71676f	-0.9429845
138	0xbe9aca25	-0.3023235
139	0xbe8b6f98	-0.27233577
140	0xbf2411c8	-0.6408963
141	0xbe8533bd	-0.26016036
142	0xbda6392d	-0.08116374
143	0x3d75fde4	0.060056582
144	0x3cd116ab	0.025523504
145	0x3ddaf06a	0.106903866
146	0xbe0eec0c	-0.13957232
147	0xbf09bc08	-0.5380254
148	0xbf18fbc6	-0.59759176
149	0xbed2f834	-0.4120499
150	0x3d6497d5	0.05580886
151	0x3d70b4a3	0.05876602
152	0xbf2f6376	-0.6851114
153	0x3cbffa3b	0.023434749
154	0x3b8eb648	0.0043552257
155	0xbf267d4e	-0.6503495
156	0xbd096c5c	-0.033550605
157	0xbd86527c	-0.065587014
158	0xbf2f31bb	-0.6843526
159	0xbf437f19	-0.7636581
160	0xbea1a83f	-0.31573674
161	0xbd92646d	-0.07148061
162	0xbf021092	-0.50806534
163	0xbcddd89e	-0.02708083
164	0xbdf84e1e	-0.12124275
165	0xbc87fe5c	-0.01660078
166	0x3d80a956	0.06282298
167	0xbefc3186	-0.49256533
168	0xbec31ec9	-0.38109425
169	0xbf46deca	-0.776837
170	0xbf507366	-0.81426084
171	0x3db5d0c6	0.08877711
172	0xbe5c8c22	-0.21537831
173	0xbef26f0f	-0.47350356
174	0xbf4ab116	-0.7917646
175	0xbea1c56b	-0.3159593
176	0xbf165b3d	-0.5873297
177	0xbf812b71	-1.0091382
178	0xbd946d26	-0.07247381
179	0xbeeb1118	-0.4591148
180	0xbce6c60f	-0.028170614
181	0xbd8f8acd	-0.07008896
182	0x3db57ff1	0.088622935
183	0x3de3ea8b	0.1112872
184	0x3d2803e6	0.041019343
185	0xbeb40524	-0.35160172
186	0xbf28c868	-0.65930796
187	0xbf5a3323	-0.8523428
188	0xbba3fd07	-0.0050045284
189	0xbf8d0b06	-1.1018989
190	0xbf24c184	-0.6435778
191	0xbe27c077	-0.16382013
192	0xbf2ad8ec	-0.66737247
193	0x3d9fdc41	0.07805682
194	0xbe2d5335	-0.16926272
195	0xbeb05a9e	-0.34444135
196	0xbf094259	-0.53616863
197	0xbfb5bdfc	-1.4198604
198	0xbdb6ab31	-0.08919371
199	0xbf4cbe06	-0.7997745
200	0xbf4aa0b1	-0.79151446
201	0xbef2cc40	-0.47421455
202	0xbf088c55	-0.5333913
203	0xbeae1a24	-0.3400432
204	0xbef55bf3	-0.47921714
205	0xbe43168d	-0.19051571
206	0xbf4178b0	-0.7557478
207	0xbf242361	-0.64116484
208	0xbf89bc16	-1.0760524
209	0xbe39d970	-0.18149352
210	0xbf01e678	-0.5074229
211	0x3bb298ac	0.005450329
212	0xbf12a45b	-0.57282037
213	0xbf1eed8c	-0.6208122
214	0xbf3c094d	-0.7345169
215	0x3e3fa877	0.18716608
216	0xbefc2c5c	-0.49252594
217	0xbf96f677	-1.1793965
218	0xbfa7ce45	-1.3109823
219	0xc0081a8f	-2.126621
220	0xbf0231c2	-0.50857174
221	0xbe50eac6	-0.20402059
222	0xbe94679b	-0.28985295
223	0xbef32f70	-0.4749713
224	0x3e062b4c	0.13102454
225	0xbd158362	-0.03650225
226	0xbdc19af5	-0.09453384
227	0x3d825739	0.06364293
228	0xbdcae96f	-0.09907805
229	0xbe36cf24	-0.17852455
230	0x3d35bf82	0.04437209
231	0x3a801ac2	0.00097736
232	0xbf1571a3	-0.5837652
233	0xbf0b4c48	-0.5441327
234	0xbff0dc4e	-1.8817232
235	0xbf39d422	-0.72589314
236	0xbf17d74c	-0.5931289
237	0xbefe8eab	-0.49718222
238	0xbd9eb437	-0.07749217
239	0xbef85b46	-0.48507136
240	0xbf52c5a5	-0.8233283
241	0x3d82faa5	0.06395463
242	0xbf42b442	-0.760563
243	0xbeafcbb5	-0.34335104
244	0xbee78fe5	-0.4522697
245	0xbf48a784	-0.7838061
246	0xbcf49645	-0.02985681
247	0xbf6ba001	-0.9204102
248	0xbe7cc305	-0.24683769
249	0xbdd6f50f	-0.1049596
250	0x3cf298cd	0.029613877
251	0xbee0ed11	-0.43930867
252	0x3d811dd0	0.063045144
253	0xbf27d17d	-0.6555403
254	0xbeddff4a	-0.43358833
255	0xbf7035fe	-0.93832386

fc3.bias f4 [10]
0	0xbef2c15b	-0.47413144
1	0x3e8480e5	0.2587959
2	0xbe6b05d3	-0.2295144
3	0x3b1260f0	0.0022335611
4	0xbed0f5e4	-0.408126
5	0xbe92b75c	-0.28655517
6	0xbf07ca6f	-0.53043264
7	0xba2b9de9	-0.0006546663
8	0x3ed9ea89	0.4256175
9	0x3e354b8a	0.17704597
